…
model.add(Conv2D(128,kernel_size=(3,3),padding='valid',activation='relu'))
model.add(BatchNormalization())
model.add(MaxPooling2D(pool_size=(2,2),strides=2,padding='valid'))

model.add(Flatten())

model.add(Dense(128,activation='relu'))
model.add(Dropout(0.1))
model.add(Dense(64,activation='relu'))
model.add(Dropout(0.1))
model.add(Dense(1,activation='sigmoid'))
[ ]
model.summary()
output
Model: "sequential_1"
_________________________________________________________________
 Layer (type)                Output Shape              Param #   
=================================================================
 conv2d_3 (Conv2D)           (None, 254, 254, 32)      896       
                                                                 
 batch_normalization (Batch  (None, 254, 254, 32)      128       
 Normalization)                                                  
                                                                 
 max_pooling2d_3 (MaxPoolin  (None, 127, 127, 32)      0         
 g2D)                                                            
                                                                 
 conv2d_4 (Conv2D)           (None, 125, 125, 64)      18496     
                                                                 
 batch_normalization_1 (Bat  (None, 125, 125, 64)      256       
 chNormalization)                                                
                                                                 
 max_pooling2d_4 (MaxPoolin  (None, 62, 62, 64)        0         
 g2D)                                                            
                                                                 
 conv2d_5 (Conv2D)           (None, 60, 60, 128)       73856     
                                                                 
 batch_normalization_2 (Bat  (None, 60, 60, 128)       512       
 chNormalization)                                                
                                                                 
 max_pooling2d_5 (MaxPoolin  (None, 30, 30, 128)       0         
 g2D)                                                            
                                                                 
 flatten_1 (Flatten)         (None, 115200)            0         
                                                                 
 dense_3 (Dense)             (None, 128)               14745728  
                                                                 
 dropout (Dropout)           (None, 128)               0         
                                                                 
 dense_4 (Dense)             (None, 64)                8256      
                                                                 
 dropout_1 (Dropout)         (None, 64)                0         
                                                                 
 dense_5 (Dense)             (None, 1)                 65        
                                                                 
=================================================================
Total params: 14848193 (56.64 MB)
Trainable params: 14847745 (56.64 MB)
Non-trainable params: 448 (1.75 KB)
_________________________________________________________________
[ ]
model.compile(optimizer='adam',loss='binary_crossentropy',metrics=['accuracy'])
[ ]
…
